{"modelTopology":{"class_name":"Model","config":{"name":"model2","layers":[{"name":"state_input","class_name":"InputLayer","config":{"batch_input_shape":[null,89],"dtype":"float32","sparse":false,"name":"state_input"},"inbound_nodes":[]},{"name":"common_dense1","class_name":"Dense","config":{"units":64,"activation":"relu","use_bias":true,"kernel_initializer":{"class_name":"VarianceScaling","config":{"scale":1,"mode":"fan_avg","distribution":"normal","seed":null}},"bias_initializer":{"class_name":"Zeros","config":{}},"kernel_regularizer":null,"bias_regularizer":null,"activity_regularizer":null,"kernel_constraint":null,"bias_constraint":null,"name":"common_dense1","trainable":true},"inbound_nodes":[[["state_input",0,0,{}]]]},{"name":"common_dense2","class_name":"Dense","config":{"units":64,"activation":"relu","use_bias":true,"kernel_initializer":{"class_name":"VarianceScaling","config":{"scale":1,"mode":"fan_avg","distribution":"normal","seed":null}},"bias_initializer":{"class_name":"Zeros","config":{}},"kernel_regularizer":null,"bias_regularizer":null,"activity_regularizer":null,"kernel_constraint":null,"bias_constraint":null,"name":"common_dense2","trainable":true},"inbound_nodes":[[["common_dense1",0,0,{}]]]},{"name":"v_dense","class_name":"Dense","config":{"units":64,"activation":"relu","use_bias":true,"kernel_initializer":{"class_name":"VarianceScaling","config":{"scale":1,"mode":"fan_avg","distribution":"normal","seed":null}},"bias_initializer":{"class_name":"Zeros","config":{}},"kernel_regularizer":null,"bias_regularizer":null,"activity_regularizer":null,"kernel_constraint":null,"bias_constraint":null,"name":"v_dense","trainable":true},"inbound_nodes":[[["common_dense2",0,0,{}]]]},{"name":"a_dense","class_name":"Dense","config":{"units":64,"activation":"relu","use_bias":true,"kernel_initializer":{"class_name":"VarianceScaling","config":{"scale":1,"mode":"fan_avg","distribution":"normal","seed":null}},"bias_initializer":{"class_name":"Zeros","config":{}},"kernel_regularizer":null,"bias_regularizer":null,"activity_regularizer":null,"kernel_constraint":null,"bias_constraint":null,"name":"a_dense","trainable":true},"inbound_nodes":[[["common_dense2",0,0,{}]]]},{"name":"flat_v","class_name":"Dense","config":{"units":51,"activation":"linear","use_bias":true,"kernel_initializer":{"class_name":"VarianceScaling","config":{"scale":1,"mode":"fan_avg","distribution":"normal","seed":null}},"bias_initializer":{"class_name":"Zeros","config":{}},"kernel_regularizer":null,"bias_regularizer":null,"activity_regularizer":null,"kernel_constraint":null,"bias_constraint":null,"name":"flat_v","trainable":true},"inbound_nodes":[[["v_dense",0,0,{}]]]},{"name":"flat_a","class_name":"Dense","config":{"units":153,"activation":"linear","use_bias":true,"kernel_initializer":{"class_name":"VarianceScaling","config":{"scale":1,"mode":"fan_avg","distribution":"normal","seed":null}},"bias_initializer":{"class_name":"Zeros","config":{}},"kernel_regularizer":null,"bias_regularizer":null,"activity_regularizer":null,"kernel_constraint":null,"bias_constraint":null,"name":"flat_a","trainable":true},"inbound_nodes":[[["a_dense",0,0,{}]]]},{"name":"reshaped_v","class_name":"Reshape","config":{"target_shape":[1,51],"name":"reshaped_v","trainable":true},"inbound_nodes":[[["flat_v",0,0,{}]]]},{"name":"reshaped_a","class_name":"Reshape","config":{"target_shape":[3,51],"name":"reshaped_a","trainable":true},"inbound_nodes":[[["flat_a",0,0,{}]]]},{"name":"advantage_normalization_AdvantageNormalization2","class_name":"AdvantageNormalization","config":{"name":"advantage_normalization_AdvantageNormalization2","trainable":true},"inbound_nodes":[[["reshaped_v",0,0,{}],["reshaped_a",0,0,{}]]]},{"name":"softmax_distributions","class_name":"Softmax","config":{"axis":2,"name":"softmax_distributions","trainable":true},"inbound_nodes":[[["advantage_normalization_AdvantageNormalization2",0,0,{}]]]}],"input_layers":[["state_input",0,0]],"output_layers":[["softmax_distributions",0,0]]},"keras_version":"tfjs-layers 4.4.0","backend":"tensor_flow.js"},"weightsManifest":[{"paths":["weights.bin"],"weights":[{"name":"common_dense1/kernel","shape":[89,64],"dtype":"float32"},{"name":"common_dense1/bias","shape":[64],"dtype":"float32"},{"name":"common_dense2/kernel","shape":[64,64],"dtype":"float32"},{"name":"common_dense2/bias","shape":[64],"dtype":"float32"},{"name":"v_dense/kernel","shape":[64,64],"dtype":"float32"},{"name":"v_dense/bias","shape":[64],"dtype":"float32"},{"name":"a_dense/kernel","shape":[64,64],"dtype":"float32"},{"name":"a_dense/bias","shape":[64],"dtype":"float32"},{"name":"flat_v/kernel","shape":[64,51],"dtype":"float32"},{"name":"flat_v/bias","shape":[51],"dtype":"float32"},{"name":"flat_a/kernel","shape":[64,153],"dtype":"float32"},{"name":"flat_a/bias","shape":[153],"dtype":"float32"}]}],"format":"layers-model","generatedBy":"TensorFlow.js tfjs-layers v4.4.0","convertedBy":null}