{"modelTopology":{"class_name":"Model","config":{"name":"model2","layers":[{"name":"input2","class_name":"InputLayer","config":{"batch_input_shape":[null,88],"dtype":"float32","sparse":false,"name":"input2"},"inbound_nodes":[]},{"name":"dense_Dense3","class_name":"Dense","config":{"units":64,"activation":"relu","use_bias":true,"kernel_initializer":{"class_name":"VarianceScaling","config":{"scale":1,"mode":"fan_avg","distribution":"normal","seed":null}},"bias_initializer":{"class_name":"Zeros","config":{}},"kernel_regularizer":null,"bias_regularizer":null,"activity_regularizer":null,"kernel_constraint":null,"bias_constraint":null,"name":"dense_Dense3","trainable":true},"inbound_nodes":[[["input2",0,0,{}]]]},{"name":"dense_Dense4","class_name":"Dense","config":{"units":64,"activation":"relu","use_bias":true,"kernel_initializer":{"class_name":"VarianceScaling","config":{"scale":1,"mode":"fan_avg","distribution":"normal","seed":null}},"bias_initializer":{"class_name":"Zeros","config":{}},"kernel_regularizer":null,"bias_regularizer":null,"activity_regularizer":null,"kernel_constraint":null,"bias_constraint":null,"name":"dense_Dense4","trainable":true},"inbound_nodes":[[["dense_Dense3",0,0,{}]]]},{"name":"noisy_dense_NoisyDense4","class_name":"NoisyDense","config":{"name":"noisy_dense_NoisyDense4","trainable":true},"inbound_nodes":[[["dense_Dense4",0,0,{}]]]},{"name":"noisy_dense_NoisyDense3","class_name":"NoisyDense","config":{"name":"noisy_dense_NoisyDense3","trainable":true},"inbound_nodes":[[["dense_Dense4",0,0,{}]]]},{"name":"advantage_normalization_AdvantageNormalization2","class_name":"AdvantageNormalization","config":{"name":"advantage_normalization_AdvantageNormalization2","trainable":true},"inbound_nodes":[[["noisy_dense_NoisyDense4",0,0,{}],["noisy_dense_NoisyDense3",0,0,{}]]]}],"input_layers":[["input2",0,0]],"output_layers":[["advantage_normalization_AdvantageNormalization2",0,0],["advantage_normalization_AdvantageNormalization2",0,1]]},"keras_version":"tfjs-layers 4.4.0","backend":"tensor_flow.js"},"weightsManifest":[{"paths":["weights.bin"],"weights":[{"name":"dense_Dense3/kernel","shape":[88,64],"dtype":"float32"},{"name":"dense_Dense3/bias","shape":[64],"dtype":"float32"},{"name":"dense_Dense4/kernel","shape":[64,64],"dtype":"float32"},{"name":"dense_Dense4/bias","shape":[64],"dtype":"float32"},{"name":"noisy_dense_NoisyDense4/kernel","shape":[64,3],"dtype":"float32"},{"name":"noisy_dense_NoisyDense4/bias","shape":[3],"dtype":"float32"},{"name":"noisy_dense_NoisyDense3/kernel","shape":[64,1],"dtype":"float32"},{"name":"noisy_dense_NoisyDense3/bias","shape":[1],"dtype":"float32"},{"name":"noisy_dense_NoisyDense4/kernelStddev","shape":[64,3],"dtype":"float32"},{"name":"noisy_dense_NoisyDense4/biasStddev","shape":[3],"dtype":"float32"},{"name":"noisy_dense_NoisyDense3/kernelStddev","shape":[64,1],"dtype":"float32"},{"name":"noisy_dense_NoisyDense3/biasStddev","shape":[1],"dtype":"float32"}]}],"format":"layers-model","generatedBy":"TensorFlow.js tfjs-layers v4.4.0","convertedBy":null}